…
Figure 7: TRUST BERT model architecture with TRUST prediction head The following is the system prompt used to judge the semantic similarity score between two comple-tions for the MATH dataset with the OpenAI gpt-4o model: **Task:** Rate the semantic similarity between Answer 1 and Answer 2 on a scale of 1-5, where: - 1 = Completely different meanings, no semantic overlap - 2 = Mostly different with minimal semantic similarity - 3 = Some semantic similarity, but notable differences in meaning - 4 = Very similar meanings with minor differences - 5 = Essentially the same meaning, highly semantically similar Answer 1: {answer_one} Answer 2: {answer_two} A.5 TRUST BERT MODEL ARCHITECTURE 

BertTokenSimilarityModel( (bert): BertModel( (embeddings): BertEmbeddings( (word_embeddings): Embedding(30522, 768, padding_idx=0) (position_embeddings): Embedding(512, 768) (token_type_embeddings): Embedding(2, 768) (LayerNorm): LayerNorm((768,), eps=1e-12, elementwise_affine=True) (dropout): Dropout(p=0.1, inplace=False) )(encoder): BertEncoder( (layer): ModuleList( (0-11): 12 x BertLayer( (attention): BertAttention( (self): BertSdpaSelfAttention( (query): Linear(in_features=768, out_features=768, bias=True) (key): Linear(in_features=768, out_features=768, bias=True) (value): Linear(in_features=768, out_features=768, bias=True) (dropout): Dropout(p=0.1, inplace=False) )(output): BertSelfOutput( (dense): Linear(in_features=768, out_features=768, bias=True) 

16 864 865 866 867 868 869 870 871 872 873 874 875 876 877 878 879 880 881 882 883 884 885 886 887 888 889 890 891 892 893 894 895 896 897 898 899 900 901 902 903 904 905 906 907 908 909 910 911 912 913 914 915 916 917 

Under review as a conference paper at ICLR 2026 

(LayerNorm): LayerNorm((768,), eps=1e-12, elementwise_affine=True) (dropout): Dropout(p=0.1, inplace=False) ))(intermediate): BertIntermediate( (dense): Linear(in_features=768, out_features=3072, bias=True) (intermediate_act_fn): GELUActivation() )(output): BertOutput( (dense): Linear(in_features=3072, out_features=768, bias=True) (LayerNorm): LayerNorm((768,), eps=1e-12, elementwise_affine=True) (dropout): Dropout(p=0.1, inplace=False) ))))(pooler): BertPooler( (dense): Linear(in_features=768, out_features=768, bias=True) (activation): Tanh() ))(dropout): Dropout(p=0.1, inplace=False) (trust_head): Linear(in_features=768, out_features=128, bias=True) )

A.6 BASELINE METHODS 

Here we provide some additional implementation details for all our baseline methods. In terms of calculating some of our white-box statistics like MSP and entropy, conventional LLM APIs can only return a truncated list of log-probabilities containing up to k out of the supported vocabulary V . This list is limited to the top 5
…
